Initializing Training Process..
GPU num: 1
Batch size per GPU : 16
Generator(
  (conv_pre): Conv1d(40, 256, kernel_size=(7,), stride=(1,), padding=(3,))
  (ups): ModuleList(
    (0): ConvTranspose1d(256, 128, kernel_size=(16,), stride=(8,), padding=(4,))
    (1): ConvTranspose1d(128, 64, kernel_size=(10,), stride=(5,), padding=(3,), output_padding=(1,))
    (2): ConvTranspose1d(64, 32, kernel_size=(4,), stride=(2,), padding=(1,))
  )
  (resblocks): ModuleList(
    (0): ResBlock2(
      (convs): ModuleList(
        (0): Conv1d(128, 128, kernel_size=(3,), stride=(1,), padding=(1,))
        (1): Conv1d(128, 128, kernel_size=(3,), stride=(1,), padding=(2,), dilation=(2,))
      )
    )
    (1): ResBlock2(
      (convs): ModuleList(
        (0): Conv1d(128, 128, kernel_size=(5,), stride=(1,), padding=(4,), dilation=(2,))
        (1): Conv1d(128, 128, kernel_size=(5,), stride=(1,), padding=(12,), dilation=(6,))
      )
    )
    (2): ResBlock2(
      (convs): ModuleList(
        (0): Conv1d(128, 128, kernel_size=(7,), stride=(1,), padding=(9,), dilation=(3,))
        (1): Conv1d(128, 128, kernel_size=(7,), stride=(1,), padding=(36,), dilation=(12,))
      )
    )
    (3): ResBlock2(
      (convs): ModuleList(
        (0): Conv1d(64, 64, kernel_size=(3,), stride=(1,), padding=(1,))
        (1): Conv1d(64, 64, kernel_size=(3,), stride=(1,), padding=(2,), dilation=(2,))
      )
    )
    (4): ResBlock2(
      (convs): ModuleList(
        (0): Conv1d(64, 64, kernel_size=(5,), stride=(1,), padding=(4,), dilation=(2,))
        (1): Conv1d(64, 64, kernel_size=(5,), stride=(1,), padding=(12,), dilation=(6,))
      )
    )
    (5): ResBlock2(
      (convs): ModuleList(
        (0): Conv1d(64, 64, kernel_size=(7,), stride=(1,), padding=(9,), dilation=(3,))
        (1): Conv1d(64, 64, kernel_size=(7,), stride=(1,), padding=(36,), dilation=(12,))
      )
    )
    (6): ResBlock2(
      (convs): ModuleList(
        (0): Conv1d(32, 32, kernel_size=(3,), stride=(1,), padding=(1,))
        (1): Conv1d(32, 32, kernel_size=(3,), stride=(1,), padding=(2,), dilation=(2,))
      )
    )
    (7): ResBlock2(
      (convs): ModuleList(
        (0): Conv1d(32, 32, kernel_size=(5,), stride=(1,), padding=(4,), dilation=(2,))
        (1): Conv1d(32, 32, kernel_size=(5,), stride=(1,), padding=(12,), dilation=(6,))
      )
    )
    (8): ResBlock2(
      (convs): ModuleList(
        (0): Conv1d(32, 32, kernel_size=(7,), stride=(1,), padding=(9,), dilation=(3,))
        (1): Conv1d(32, 32, kernel_size=(7,), stride=(1,), padding=(36,), dilation=(12,))
      )
    )
  )
  (conv_post): Conv1d(32, 1, kernel_size=(7,), stride=(1,), padding=(3,))
)
checkpoints directory :  cp_hifigan
Steps : 0, Gen Loss Total : 107.934, Mel-Spec. Error : 2.242, s/b : 144.154
Steps : 5, Gen Loss Total : 102.603, Mel-Spec. Error : 2.211, s/b : 0.436
Steps : 10, Gen Loss Total : 79.088, Mel-Spec. Error : 1.693, s/b : 0.433
Steps : 15, Gen Loss Total : 76.199, Mel-Spec. Error : 1.606, s/b : 0.436
Steps : 20, Gen Loss Total : 78.720, Mel-Spec. Error : 1.628, s/b : 0.436
…
